…
积核个数为384，大小3x3x256, padding = 1\n卷积层4 Conv-Relu  卷积核个数为384，大小3x3, padding = 1\n卷积层5 Conv-Relu-Pooling  卷积核个数为256，大小3x3, padding = 1\n进行max_pooling, pool_size = (3, 3), stride = 2\n全连接层1 fc-Relu-Dropout  Dropout层：在训练中以50%的概率使得隐藏层的某些neuron的输出为0，这样就都丢掉了一半节点的输出，BP的时候也不会更新这些节点，防止过拟合\n 全连接层2 fc-Relu-Dropout\n  全连接层3 fc-softmax\n  三个全连接层每一层的神经元的个数为4096，最终输出softmax为1000,因为ImageNet这个比赛的分类个数为1000。全连接层中使用了RELU和Dropout。\nPytorch的torchvision包中包含AlexNet的官方实现\nimport torcvision model = torchvision.models.alexnet(pretrained=False) print(model) \u0026#39;\u0026#39;\u0026#39; AlexNet( (features): Sequential( (0): Conv2d(3, 64, kernel_size=(11, 11), stride=(4, 4), padding=(2, 2)) (1): ReLU(inplace=True) (2): MaxPool2d(kernel_size=3, stride=2, padding=0, dilation=1, ceil_mode=False) (3): Conv2d(64, 192, kernel_size=(5, 5), stride=(1, 1), padding=(2, 2)) (4): ReLU(inplace=True) (5): MaxPool2d(kernel_size=3, stride=2, padding=0, dilation=1, ceil_mode=False) (6): Conv2d(192, 384, kernel_size=(3, 3), stride=(1, 1), padding=(1, 1)) (7): ReLU(inplace=True) (8): Conv2d(384, 256, kernel_size=(3, 3), stride=(1, 1), padding=(1, 1)) (9): ReLU(inplace=True) (10): Conv2d(256, 256, kernel_size=(3, 3), stride=(1, 1), padding=(1, 1)) (11): ReLU(inplace=True) (12): MaxPool2d(kernel_size=3, stride=2, padding=0, dilation=1, ceil_mode=False) ) (avgpool): AdaptiveAvgPool2d(output_size=(6, 6)) (classifier): Sequential( (0): Dropout(p=0.5, inplace=False) (1): Linear(in_features=9216, out_features=4096, bias=True) (2): ReLU(inplace=True) (3): Dropout(p=0.5, inplace=False) (4): Linear(in_features=4096, out_features=4096, bias=True) (5): ReLU(inplace=True) (6): Linear(in_features=4096, out_features=1000, bias=True) ) ) \u0026#39;\u0026#39;\u0026#39; 深入理解AlexNet\nVGG 论文：Very deep convolutional networks for large-scale image recognition\n论文中提出了多个版本的VGG结构，其中D就是著名的VGG16\n 每个卷积层中使用更小的 3×3 filters，并将它们组合成卷积序列 多个3×3卷积序列可以模拟更大的接收场的效果 每次的图像像素缩小一倍，卷积核的数量增加一倍  VGG由5层卷积层、3层全连接层、softmax输出层构成，层与层之间为max-pooling，所有隐层的激活函数均为ReLu\n 小卷积核  VGG采用多个小卷积核(3x3)的卷积层代替一个卷积核较大的卷积层。这样一方面可以减少卷积层的参数，另一方面相当于进行了更多的非线性映射，可以增加网络的拟合/表达能力\nVGG的作者认为，当input为8x8，经过三层Conv 3x3后，output为2x2，这等同于1层Conv 7x7的结果；当input为8x8，经过2层Conv 3x3后，output为2x2，等同于1层Conv 5x5的结果。这样可以增加非线性映射，也能很好地减少参数\n小池化核  相比于AlexNet的3x3的池化核， VGG全部采用2x2的池化核\n通道数多  VGG网络第一层的通道数为64，后面每层都进行了翻倍，最多到512个通道，通道数的增加，使得更多的信息可以被提取出来\n层数更深、特征图更宽  由于卷积核专注于扩大通道数、池化专注于缩小宽和高，使得模型架构上更深更宽的同时，控制了计算量的增加规模。\n同样，torchvision包中有官方实现\nimport torchvision model = torchvision.models.vgg16(pretrained=False) print(model) \u0026#39;\u0026#39;\u0026#39; VGG( (features): Sequential( (0): Conv2d(3, 64, kernel_size=(3, 3), stride=(1, 1), padding=(1, 1)) (1): ReLU(inplace) (2): Conv2d(64, 64, kernel_size=(3, 3), stride=(1, 1), padding=(1, 1)) (3): ReLU(inplace) (4): MaxPool2d(kernel_size=2, stride=2, padding=0, dilation=1, ceil_mode=False) (5): Conv2d(64, 128, kernel_size=(3, 3), stride=(1, 1), padding=(1, 1)) (6): ReLU(inplace) (7): Conv2d(128, 128, kernel_size=(3, 3), stride=(1, 1), padding=(1, 1)) (8): ReLU(inplace) (9): MaxPool2d(kernel_size=2, stride=2, padding=0, dilation=1, ceil_mode=False) (10): Conv2d(128, 256, kernel_size=(3, 3), stride=(1, 1), padding=(1, 1)) (11): ReLU(inplace) (12): Conv2d(256, 256, kernel_size=(3, 3), stride=(1, 1), padding=(1, 1)) (13): ReLU(inplace) (14): Conv2d(256, 256, kernel_size=(3, 3), stride=(1, 1), padding=(1, 1)) (15): ReLU(inplace) (16): MaxPool2d(kernel_size=2, stride=2, padding=0, dilation=1, ceil_mode=False) (17): Conv2d(256, 512, kernel_size=(3, 3), stride=(1, 1), padding=(1, 1)) (18): ReLU(inplace) (19): Conv2d(512, 512, kernel_size=(3, 3), stride=(1, 1), padding=(1, 1)) (20): ReLU(inplace) (21): Conv2d(512, 512, kernel_size=(3, 3), stride=(1, 1), padding=(1, 1)) (22): ReLU(inplace) (23): MaxPool2d(kernel_size=2, stride=2, padding=0, dilation=1, ceil_mode=False) (24): Conv2d(512, 512, kernel_size=(3, 3), stride=(1, 1), padding=(1, 1)) (25): ReLU(inplace) (26): Conv2d(512, 512, kernel_size=(3, 3), stride=(1, 1), padding=(1, 1)) (27): ReLU(inplace) (28): Conv2d(512, 512, kernel_size=(3, 3), stride=(1, 1), padding=(1, 1)) (29): ReLU(inplace) (30): MaxPool2d(kernel_size=2, stride=2, padding=0, dilation=1, ceil_mode=False) ) (classifier): Sequential( (0): Linear(in_features=25088, out_features=4096, bias=True) (1): ReLU(inplace) (2): Dropout(p=0.5) (3): Linear(in_features=4096, out_features=4096, bias=True) (4): ReLU(inplace) (5): Dropout(p=0.5) (6): Linear(in_features=4096, out_features=1000, bias=True) ) ) \u0026#39;\u0026#39;\u0026#39; 简化图如下：\n 深度解析：大话CNN经典模型：VGGNet\n GoogLeNet 论文：Rethinking the Inception Architecture for Computer Vision\nGoogLeNet团队提出了Inception网络结构，就是构造一种“基础神经元”结构，来搭建一个稀疏性、高计算性能的网络结构。\nInception V1 通过设计一个稀疏网络结构，但是能够产生稠密的数据，既能增加神经网络的表现，又能保证计算资源的使用效率。谷歌题出了最原始的Inception的基本结构\n该结构将CNN中常用的卷积（1x1，3x3，5x5）、池化操作（3x3）堆叠在一起（卷积、池化后的尺寸相同，将通道
…
pool2d(F.relu(self.conv2(x)), 2) # (2, 2)也可直接换作 2 # view 将 x 展开成一维的向量，总特征数并不改变，为接下来的全连接作准备。 # view 的作用类似于Numpy中的reshape x = x.view(-1, self.num_flat_features(x)) # 输入x经过 full_connect，再经过ReLU激活函数，然后更新x x = F.relu(self.fc1(x)) x = F.relu(self.fc2(x)) # 输入x经过 full_connect 然后更新x x = self.fc3(x) return x def num_flat_features(self, x): # 计算x的总特征量(把每个数字都看作是一个特征) # 比如 x 是4*2*2的张量，那么它的特征总量就是16。 # Pytorch 仅接受批输入（一次性输入多张图片） size = x.size()[1:] # 考虑除了第一个维度以外的所有维度 num_features = 1 for s in size: num_features *= s return num_features net = Net() print(net) \u0026#39;\u0026#39;\u0026#39; Output: Net( (conv1): Conv2d(1, 6, kernel_size=(5, 5), stride=(1, 1)) (conv2): Conv2d(6, 16, kernel_size=(5, 5), stride=(1, 1)) (fc1): Linear(in_features=400, out_features=120, bias=True) (fc2): Linear(in_features=120, out_features=84, bias=True) (fc3): Linear(in_features=84, out_features=10, bias=True) ) \u0026#39;\u0026#39;\u0026#39;  super()函数使用参考：super() linear()函数使用参考：linear() relu\n 在模型中必须要定义 forward 函数，backward 函数（用来计算梯度）会被autograd自动创建。\n可以在 forward 函数中使用任何针对 Tensor 的操作。\nnet.parameters()返回可被学习的参数（权重）列表和值:\nparams = list(net.parameters()) print(len(params)) print(params[0].size()) # conv1\u0026#39;s .weight # Output: # 10 # torch.Size([6, 1, 5, 5
…
